BurgersFD_CleanCoarse/pod_ann_model.pth (torch, 588498 bytes, 12 tensors)

weight f4 [32, 10]
000000 90 dd a3 3d 9c 89 1d bb 9f 4e 46 be f0 ee 18 be
       0.08001244 -0.002403832 -0.19365929 -0.14934897
000010 a5 48 8f be e7 b2 f6 bd 48 85 28 3e b2 51 ae 3e
       -0.2798511 -0.12045842 0.16457093 0.34046704
000020 48 e7 7a 3e 3c 7d ee 3e 76 2b 35 be eb e8 6a 3d
       0.2450229 0.4657992 -0.1769236 0.057351034
000030 72 d7 1f be 52 c8 97 3e 67 4c 80 3e 4e 35 94 be
       -0.1560953 0.2964502 0.2505829 -0.28946918
000040 5f b7 78 3e e8 69 98 be 88 38 98 3e 93 0f 13 be
       0.242887 -0.297683 0.2973063 -0.1436141
000050 1b 0b 7f 3e 75 0b 6a 3d 10 28 4d be 8b 11 2d 3e
       0.2490658 0.057139833 -0.20034814 0.16901223
000060 3f 3b 30 3e 7e 59 7e bd ed d6 bd 3d e8 33 ed be
       0.172101 -0.062097065 0.092695095 -0.46328664
000070 d9 15 a7 3e 6c 25 49 3e 9b cf 5b 3e 70 60 d9 3d
       0.32633856 0.19643182 0.21465914 0.10614097
000080 bc a2 94 3d 20 87 81 3e 5a 4b 6e be ad 58 5e 3e
       0.072576016 0.25298405 -0.23270932 0.21713515
000090 c1 1a f7 3d db 15 0f 3e 35 40 be be 0d 4c 0a 3f
       0.1206565 0.13973181 -0.3715836 0.54022294
0000a0 61 97 25 3d e4 5a 35 be a5 5b ae bd 7e 20 b7 3e
       0.04042757 -0.17710453 -0.085135736 0.35766977
0000b0 28 9c 07 3e e7 65 ba 3e ec 06 b6 3e ca 50 4f 3e
       0.13243163 0.3640587 0.35552156 0.20245662
0000c0 a4 d5 7a bd 72 0d 20 3e 77 75 6a 3e 16 fd 81 3e
       -0.0612389 0.15630129 0.22896372 0.25388402
0000d0 30 e3 b8 bb f8 8a c3 be 37 9f 50 be 27 aa 10 3e
       -0.0056423172 -0.38191962 -0.20373236 0.14127408
0000e0 01 9f dd 3e 6f 33 68 be 48 c3 9d 3e c5 0e d6 be
       0.43285373 -0.2267587 0.3081305 -0.41808143
0000f0 c3 87 ee 3d ca 17 94 3e a2 7c 98 3e ea 23 20 be
       0.11646988 0.289244 0.29782587 -0.156387
000100 87 ff b1 3d fb 01 4f bd 1e 45 c1 bd 11 74 f7 be
       0.08691316 -0.050538998 -0.09437011 -0.4833074
000110 23 48 6d 3d f2 7d 9d 3e 92 65 8a 3e c5 2b 5f be
       0.057930123 0.3076015 0.27030617 -0.2179404
000120 ae 3c 29 be e7 c7 72 bd 3e 1b ca 3d 99 8c 6e 3d
       -0.16527054 -0.059272673 0.09868477 0.058239553
000130 82 fe 6f be 11 3d a7 bd 7a e6 97 be 88 62 ad be
       -0.23436931 -0.08165944 -0.29668027 -0.33864236
000140 c1 8e 1e 3e 6a b5 1c 3e d9 08 2f be c9 e2 86 3e
       0.15484144 0.15303579 -0.17093219 0.26344898
000150 7f 31 50 be 54 18 97 be f5 20 d1 3e e6 97 74 be
       -0.20331381 -0.29510748 0.40845457 -0.2388607
000160 ff cb 81 3e 94 3f bb 3e cb 6b 46 3e b7 e4 5e 3e
       0.2535095 0.36571944 0.19377057 0.21766935
000170 36 c7 9c 3e 5f 03 65 3e 6d 3b 52 bd b2 f5 65 3e
       0.30620736 0.22364567 -0.051326204 0.22457007
000180 e2 bf 3b bd 63 e6 b0 3d 8a 11 de be eb 94 25 3d
       -0.04583729 0.08637693 -0.43372756 0.040425222
000190 51 36 c0 3d 35 ae 4e bd 41 5b 59 bd 23 4e 5e 3e
       0.0938536 -0.050459106 -0.053065542 0.21709494
0001a0 d2 a4 b8 3d 0b 7b 9a be d5 bf a3 3d f8 c1 90 3e
       0.09015812 -0.30172 0.079955734 0.28272986
0001b0 72 59 79 bd fe 87 04 bf 1a 92 c9 bd c8 f1 23 3e
       -0.060876317 -0.5177001 -0.0984232 0.16010201
0001c0 1e e5 a0 be fb 34 0b be 1f 39 c6 be 78 26 e7 3e
       -0.31424803 -0.13594429 -0.38715455 0.45146537
0001d0 20 38 23 3e ff b2 a0 3e 3e 84 87 be 4b bd c4 3e
       0.15939379 0.31386563 -0.2646808 0.3842567
0001e0 6d dd 4f 3e 57 07 23 3e 2e fd 92 be 3c ae 76 be
       0.20299311 0.15920769 -0.28708786 -0.24089903
0001f0 98 2d 6c 3c 19 4a b2 be af f0 21 3e b1 b8 76 3e
       0.014415167 -0.34822157 0.1581447 0.24093892
000200 26 92 17 bd 84 f9 a7 3e 76 5f 38 3e 89 84 47 3e
       -0.037004612 0.32807553 0.18005165 0.19484152
000210 98 f4 93 be 78 30 9f 3e 62 e7 8b be 35 85 d3 bc
       -0.28897548 0.31091666 -0.2732497 -0.025820354
000220 3f ab 5f 3d c5 6e c2 3e 4d 57 36 be 6b 06 12 be
       0.054606672 0.37975135 -0.1780674 -0.14260261
000230 f4 9c 80 3d 13 33 90 bd 63 8d cf 3c 3c d8 90 bd
       0.062799364 -0.07040992 0.025335973 -0.070724934
000240 2c 71 2f 3e 4a 6d 37 3e 3c 9d ef 3d c6 d5 4b be
       0.17133015 0.17912784 0.11699912 -0.19905767
000250 61 b7 02 bf 03 ef e0 3e 67 22 1e 3a cf f5 52 be
       -0.51061064 0.4393235 0.0006032348 -0.20601581
000260 2d 50 54 bc 89 0a 76 3c 01 42 66 3c 44 e9 ea bc
       -0.0129585685 0.01501716 0.0140538225 -0.028675683
000270 cb 8b eb bc 70 3c 86 be fd 28 ad 3c 4f 44 be 3d
       -0.028753182 -0.26217985 0.021137709 0.092903726
000280 21 19 3d 3d bc cd af 3e 26 47 62 3d 45 b6 a9 be
       0.046166543 0.3433665 0.055243634 -0.33146873
000290 e1 a6 83 3e 63 e0 9a bd 84 0c 30 3e 4e 94 cf bd
       0.25713256 -0.075623296 0.17192274 -0.10135709
0002a0 da 2d f3 be c2 0a 31 3e 42 50 1b 3d 0f 03 3a 3e
       -0.4749592 0.1728926 0.037918337 0.1816523
0002b0 88 ec 90 3e e9 34 ca bd af 3c 1f 3e 20 8f 22 be
       0.2830546 -0.09873373 0.15550493 -0.1587491
0002c0 95 86 86 bd dd ea 43 be b4 34 e9 3d 62 3b dd 3e
       -0.06568638 -0.19132562 0.113870054 0.43209368
0002d0 b8 97 c7 bd 00 b9 ce bd 13 76 68 be d4 d7 a7 3e
       -0.09745735 -0.1009388 -0.22701292 0.3278185
0002e0 5c 88 b0 be 91 19 a2 bd 3b 8b 88 be 26 66 aa 3e
       -0.34479034 -0.07915033 -0.26668724 0.33281058
0002f0 ff b1 ee 3d cb a4 63 3e 97 99 82 be 10 d2 9c be
       0.11655044 0.22230832 -0.25507805 -0.30629015
000300 71 80 67 bd d5 c5 7d b9 d1 ac 54 3d a9 a8 26 bc
       -0.056518976 -0.00024201658 0.051922623 -0.010172048
000310 15 4f 35 be 3a f9 9c be 4c 51 22 be 39 80 93 3d
       -0.17705949 -0.30658895 -0.15851325 0.07202191
000320 c4 06 09 be 25 2a 0b 3d 08 55 d9 bd 57 ce 39 3e
       -0.13381487 0.03397574 -0.106119215 0.18145119
000330 5e c6 7c 3e 58 de 53 be c5 9c 4e bc a9 d2 6b 3d
       0.24685046 -0.20690286 -0.012610619 0.057573948
000340 f9 92 97 3c 0f 20 7f be 3f 67 82 3d 7a 6c 0f bd
       0.0185027 -0.24914573 0.06367349 -0.03501556
000350 61 68 6e bd e4 8c da bd bf 78 81 bd b3 e9 dd bd
       -0.058205012 -0.10671404 -0.063218586 -0.1083559
000360 90 d2 78 be 92 ab 1c be 6b 5c ca be 40 33 6f be
       -0.24299073 -0.15299824 -0.39523634 -0.23359394
000370 c5 1d 59 be 06 75 5b bd 94 1d 0c be f6 82 a6 3e
       -0.21202762 -0.0535784 -0.13683158 0.3252179
000380 76 11 d4 bb 91 aa 11 be 07 82 02 be fa aa a6 3e
       -0.006471808 -0.14225222 -0.12744914 0.3255232
000390 a7 62 8c 3e 48 46 3e bd 09 43 05 3e 96 01 44 3b
       0.27419016 -0.046453744 0.13013853 0.0029908172
0003a0 d7 0c a0 bd fc 32 70 3e 3f c2 51 3e 43 ef 96 be
       -0.07814949 0.23456949 0.20484255 -0.29479417
0003b0 9d f3 9b bd ad 0e 28 3d 85 9c c2 bd db f4 ca be
       -0.07614825 0.04102962 -0.0950251 -0.39639935
0003c0 3d 58 c1 3c d8 e6 9a 3d 00 d4 82 be e9 1e 04 3e
       0.023601646 0.07563561 -0.25552368 0.12902416
0003d0 67 fe c7 3a 2a da 19 be 45 87 88 bd 81 99 8a be
       0.0015258313 -0.15024629 -0.066664256 -0.2707024
0003e0 21 85 bb bd c3 7c be be 6e 06 97 be 0f 2d 90 3e
       -0.09156252 -0.3720456 -0.29497093 0.28159377
0003f0 fd a9 84 3e 3b 74 9f 3e d9 5c 28 3e fd ce 44 be
       0.2591094 0.31143364 0.16441669 -0.19219585

bias f4 [32]
000000 10 0a 7a be 87 91 a5 bd be 64 87 bc 6c 48 9a 3e
       -0.24417901 -0.08084398 -0.01652753 0.30133379
000010 81 92 94 be 80 d1 f3 bd 9c 54 86 be 0d 6a 45 be
       -0.29018024 -0.11905193 -0.26236427 -0.19278736
000020 3a 4e e0 3d 76 43 4c 3e f5 0d 9e 3e 4c 05 40 bd
       0.109524205 0.1994761 0.30870023 -0.04688005
000030 f9 1a 78 3e cd 95 d5 bd 13 1e 4f 3d 14 bc eb 3d
       0.24229039 -0.10428963 0.05056579 0.115104824
000040 f3 16 bd be fe 5d e7 3d b2 5a dc 3a 91 13 31 3d
       -0.3693157 0.112972245 0.0016811697 0.04323155
000050 38 d7 00 be 6a c3 49 3b 1f d3 d4 bd ec 9f d2 bd
       -0.125821 0.0030786642 -0.10391831 -0.10284409
000060 cf ca 11 bd 89 48 98 be 1e 60 2c be d7 84 d4 3c
       -0.035593804 -0.2974284 -0.16833541 0.02594225
000070 20 f9 c8 bd df 22 6b be 74 2a 27 be d7 99 29 3e
       -0.09813142 -0.22962521 -0.16324788 0.16562591

weight f4 [64, 32]
000000 ba 5f 1a 3e 8a 64 32 bd 80 2e 42 3c 5c f1 c8 bd
       0.1507558 -0.043552913 0.011851907 -0.09811661
000010 07 11 35 3e 5a cd 05 be 10 86 de 3c 61 f1 0b 3e
       0.17682277 -0.13066617 0.027163535 0.13666297
000020 00 03 d4 bd 23 68 46 be dd f1 32 3d ce 5f 2c 3e
       -0.10352135 -0.19375663 0.04368769 0.16833422
000030 17 36 16 be 79 c9 27 bd 58 a9 0c be e5 23 fd bd
       -0.14669071 -0.040963624 -0.13736475 -0.12360362
000040 c7 d0 f4 3b b5 7e 9d 3d 7a 04 23 3e fa bb b9 bd
       0.0074711773 0.07690183 0.15919676 -0.09069057
000050 3c f3 a6 3d 04 f7 8b bd 2d f0 25 3e a8 e9 8e 3c
       0.08151862 -0.06834224 0.16204901 0.0174454
000060 5b 6f a9 3c a0 ea a8 bd ce 3e 65 3d 6f f4 78 bb
       0.020682981 -0.08247876 0.0559681 -0.003798749
000070 eb b3 78 be ba 4b 7d 3d 63 4e 32 bd 5f 8d 1a 3e
       -0.24287383 0.061839797 -0.043531787 0.15092991
000080 93 fa cd 3d 21 b2 d3 bd b4 bb a5 3c c2 e2 28 3e
       0.10057559 -0.1033671 0.020231105 0.16492751
000090 12 3a 1c bd 80 47 f1 3c 64 c7 22 be d7 93 0d be
       -0.038141318 0.02945304 -0.15896374 -0.13825928
0000a0 5a 30 cd 3c 2a c4 88 bd 37 5d 5c 3c 63 cb d5 3c
       0.02504747 -0.0667804 0.0134499585 0.026097959
0000b0 c0 7f ab 3d b9 2a 1d be d8 c9 05 be 61 05 d7 bd
       0.08373976 -0.15348329 -0.13065279 -0.10499073
0000c0 d9 46 80 3d d0 1b 00 3e 8c 87 2e 3e 2f 06 9e 3d
       0.06263513 0.1251061 0.17043895 0.07716023
0000d0 b7 64 0f 3d c5 d0 66 bd 3a b7 0b 3e 53 c4 19 be
       0.03500816 -0.056351442 0.13644114 -0.15016298
0000e0 f7 aa 99 3c 59 d8 ad 3d 8c d2 ae bc 7b de ee 3c
       0.01875828 0.08488531 -0.021340631 0.029158821
0000f0 e3 ff ca 3d 60 ec 20 3e 8a 96 b2 3d 10 2e 7e bd
       0.09912088 0.1571517 0.08720119 -0.062055647
000100 25 d5 82 bc e5 80 e3 3d d2 d4 c6 3d 06 3c 12 3d
       -0.015970776 0.11108569 0.09708561 0.035701774
000110 a3 7c 43 3e 81 87 eb 3d 7d 3a 41 be ad 8c 3d be
       0.19090514 0.11500455 -0.18869968 -0.18510695
000120 d1 68 48 3e e5 e7 22 bd 37 50 5f 3d 58 f6 5a 3d
       0.19571234 -0.039771933 0.05451986 0.053457588
000130 1d 05 8d 3d 25 00 38 3e 98 b8 ab 3d 87 c7 29 3e
       0.06885741 0.17968805 0.08384818 0.1658002
000140 0f bd e7 bd 98 b3 11 3c 10 45 7c bd 06 cb cf bb
       -0.11315357 0.008892916 -0.0615893 -0.006341341
000150 89 ad 1d be 48 59 50 be f5 ef a4 bd 94 72 13 be
       -0.1539823 -0.20346558 -0.08053581 -0.14399177
000160 33 56 a7 bd 15 c5 e9 3d 98 e5 18 3e 24 85 a7 bc
       -0.08170738 0.114145435 0.14931333 -0.020449229
000170 5b 66 69 bd 2e 5f af bd 0c 7c 27 bb d4 da aa bd
       -0.05698238 -0.08563076 -0.0025556115 -0.083425194
000180 48 40 c2 bd ac 28 50 3e 05 55 18 be 99 d8 68 3b
       -0.09484917 0.20328015 -0.14876182 0.0035529493
000190 e8 f9 0c 3e 6e ea 27 be bb 55 9b 3d bc 42 51 3d
       0.13767207 -0.16398022 0.07584711 0.051089033
0001a0 1c b4 1c bd 4d 91 4d be 12 a3 02 3d e3 bd a1 bd
       -0.038257703 -0.20074959 0.031893797 -0.07897546
0001b0 99 16 e6 bd 5d 1d ce 3d df 04 a5 ba eb a8 76 3b
       -0.11234779 0.10064194 -0.0012589953 0.0037637304
0001c0 1d 46 c1 3d b8 72 5a 3e 28 c6 d5 3d a6 98 42 3e
       0.09437201 0.21332824 0.10438186 0.19003543
0001d0 91 1f 95 bc 93 1e 41 3e e1 09 ea 3b 55 26 6e bc
       -0.018203529 0.1885932 0.007142291 -0.014535506
0001e0 ad 5d 0b 3e 25 8b c2 3d 0f 64 90 bd 88 45 3f 3e
       0.13609953 0.09499196 -0.07050335 0.18678868
0001f0 5c c8 d5 bc aa d2 20 be 7f ef e2 bd d3 a4 66 3e
       -0.026096515 -0.15705362 -0.110808365 0.22523813
000200 9d aa 32 3d ad 63 fa bd 6b 17 02 3e be 36 fe bd
       0.04361974 -0.12226043 0.12704246 -0.12412785
000210 b4 a3 40 3d 74 64 06 3e 43 f2 d0 bb 47 c2 fb bd
       0.04703112 0.13124257 -0.006376536 -0.12292915
000220 fd 23 3c 3d 8e 83 2c 3c 09 6a 1e be 8f dc ab 3d
       0.04593276 0.010529412 -0.15470137 0.083916776
000230 ad d2 d6 3d c5 7d ce bd c1 d4 7f bd ef 31 8b 3c
       0.10489402 -0.100825824 -0.062458757 0.016991584
000240 1e 6a 18 3e 79 53 ae bd 76 f4 31 bd 6d ee 9c 3d
       0.1488423 -0.08512015 -0.043446027 0.076626636
000250 59 eb ac 3d 04 d6 0c 3d 2e 65 84 3e aa cb ae 3d
       0.084433265 0.03438379 0.25858444 0.085349396
000260 ec 96 9b bd 6b 03 f7 bd 5e 7d dd 3d bd c8 37 3e
       -0.075971454 -0.12061199 0.108149275 0.1794767
000270 d9 ea 03 be 1d 72 d1 3d 9b a0 5c be 2e 54 a6 3d
       -0.12882556 0.102268435 -0.21545641 0.08121525
000280 d7 11 56 3d 25 54 de 3c 27 c2 36 3b 0a bc 94 3c
       0.052263107 0.027139733 0.002788672 0.01815607
000290 d6 a7 ea bd f0 a9 0c 3e 37 54 ca 3d 98 b3 87 bb
       -0.114577934 0.13736701 0.09879344 -0.0041412823
0002a0 d3 41 1f 3e 36 42 95 3d 64 17 92 3d ba 22 63 3e
       0.15552454 0.07288019 0.07133368 0.22181216
0002b0 1b d5 f6 bd e7 e2 e1 3d ba eb 85 be af e0 31 be
       -0.120523654 0.11029606 -0.26156408 -0.17370866
0002c0 15 eb 08 be b3 83 cf bb 7f 4e ea bc fa 09 1e be
       -0.13370927 -0.0063328384 -0.028601883 -0.15433493
0002d0 85 66 6b 3c 81 a5 90 3d 52 cd 5f be 6c 85 18 3e
       0.014367704 0.07062817 -0.21855667 0.14894646
0002e0 14 dd 35 3e 9c 48 3b be ba e3 3a be 3b 85 07 be
       0.17760116 -0.18289417 -0.18250933 -0.13234417
0002f0 f5 6c af 3d 41 74 8c bd d2 05 c5 3c b2 91 f5 bb
       0.08565704 -0.06858111 0.024050627 -0.007494175
000300 a5 6e 5e bd 22 76 1b 3e e7 71 71 3d b8 df a7 3d
       -0.054304738 0.15181783 0.058946516 0.08196968
000310 51 8e 0d bd ac 14 1c be 03 89 09 3e df c2 cd bd
       -0.03455955 -0.1524226 0.13431172 -0.10046934
000320 d5 00 f1 bb 60 06 89 bc f9 a8 17 be 1f 88 95 3d
       -0.0073548355 -0.016726673 -0.14810552 0.07301354
000330 d1 8f 2d be 59 19 04 3e 8c 42 37 bd 88 cf 21 bd
       -0.16949393 0.12900294 -0.0447412 -0.039504558
000340 81 03 2e bd 82 86 06 3e fe 29 62 bc 88 4a b1 3d
       -0.04248381 0.13137248 -0.013803957 0.08656794
000350 70 bc ba bd 14 2c 92 bd 66 3b 00 be 0e 7c 6b bd
       -0.09117973 -0.071373135 -0.12522659 -0.057491355
000360 a3 ce fd bd e5 9c 21 3e ae 83 1f bc 99 cb a9 bd
       -0.123929285 0.15782507 -0.009735985 -0.08290786
000370 24 05 1d be f9 7e 1e be 0e 54 08 be bc 44 ae bd
       -0.15333992 -0.15478124 -0.13313314 -0.08509204
000380 9f e4 10 be 11 9f df bd 08 2b e6 3d 9e 54 33 be
       -0.14149712 -0.109190114 0.11238676 -0.17512748
000390 f0 71 3a be a0 42 56 3d 45 12 6d 3d a0 10 0a be
       -0.18207526 0.052309632 0.05787875 -0.13482904
0003a0 01 c7 be 3d 28 4f b1 bd b8 e3 a7 3d f0 3a 55 be
       0.09315301 -0.08657676 0.08197731 -0.20823264
0003b0 97 a8 02 3e d6 79 24 3e f7 30 18 be b1 d5 1c be
       0.12759624 0.16062102 -0.14862429 -0.15315892
0003c0 db ad 07 3e f8 7a 0b be 7a 4b 7c bb f7 d9 98 3c
       0.13249914 -0.13621128 -0.0038497136 0.018658621
0003d0 dc 04 73 bd 8e d5 33 3e 25 79 0b be e3 02 00 3e
       -0.059330806 0.17561933 -0.13620432 0.12501101
0003e0 79 cd 79 3e 86 8a 15 3e 12 50 80 3d e4 de 36 be
       0.24394788 0.14603624 0.06265272 -0.17858464
0003f0 54 c5 d9 bd f1 19 a8 bd 92 d9 34 3c 18 a3 6d bd
       -0.106333405 -0.08208073 0.011038201 -0.058016866

bias f4 [64]
000000 79 64 30 be e7 31 16 be df 7c b5 bd 98 48 a2 3d
       -0.17225827 -0.14667474 -0.08861708 0.079240024
000010 26 3e ec bd 9d 89 fb 3c a1 b3 11 be 63 d8 a6 bc
       -0.115352914 0.030705268 -0.14228679 -0.020366853
000020 95 4a 9d bd 22 88 b4 bd 7a 3a 4c bd f8 a7 c3 3d
       -0.07680241 -0.08815028 -0.049860455 0.09553522
000030 38 89 44 be ac a7 4d be a9 5b ec bc 8f 44 98 bd
       -0.1919297 -0.20083493 -0.0288523 -0.074349515
000040 1b 76 39 be 4a 3c c2 bd e0 89 c0 bd 20 60 e8 bd
       -0.1811146 -0.094841555 -0.094012976 -0.113464594
000050 a3 96 0b 3d 02 59 32 3e 09 67 bc bc 2b cb 49 be
       0.034079205 0.17416766 -0.02299835 -0.19706409
000060 37 75 e3 3c 45 80 92 3d 3d 6d 97 3d 3f 30 1b be
       0.027765853 0.07153372 0.073938824 -0.15155123
000070 0c 86 c7 bd 6e 2c 7b 3e 09 4f d9 3d 4e 87 6f 3d
       -0.09742364 0.24528667 0.10610778 0.058478646
000080 8b 2c 5d 3e 2a 6f 22 3e 67 d0 83 bd f3 ff 39 3d
       0.21599023 0.15862718 -0.06436234 0.045410108
000090 9b 1b b8 3d a5 10 31 3d 6c 8d 12 be a8 2f cd 3d
       0.0898964 0.043228764 -0.1431176 0.10018855
0000a0 8d 44 41 bd 1a b3 53 be 1d f7 f8 bd 8b 06 9e 3d
       -0.047184516 -0.2067379 -0.12156508 0.07716092
0000b0 5b 72 a5 3d 7d cf 10 3e f1 7d 74 be c0 6b 70 bd
       0.08078452 0.1414165 -0.23876168 -0.05869651
0000c0 41 ff 4a be 61 1e 58 bd c3 e1 2b 3d c8 03 0f bd
       -0.19823934 -0.052763347 0.04196335 -0.034915715
0000d0 7e 51 a7 bc 3b 99 16 3d 8c 0a 3c bd bd b1 89 3d
       -0.0204246 0.036767226 -0.045908496 0.06723354
0000e0 8a 30 56 3e 17 b9 42 3e a7 0e cd 3d 72 3e 09 3e
       0.20916954 0.19015919 0.1001256 0.13402727
0000f0 c2 72 03 be 33 7e dd bd ef ef 1e 3e 01 3e cd 3c
       -0.12836745 -0.10815086 0.15521215 0.02505398

weight f4 [128, 64]
000000 2f 7e 0f be bf b8 c1 3d f9 6d 02 be 19 43 a7 3d
       -0.14012979 0.09459066 -0.12737264 0.08167095
000010 37 76 b3 bd c6 ed 07 be d2 7b 73 3c 14 dc 90 3d
       -0.08762782 -0.13274297 0.014861064 0.070732266
000020 ce 74 2e 3d 04 7e 2c bd 60 ec 7a bd 93 b8 81 3c
       0.042591862 -0.042112365 -0.06126058 0.015835082
000030 24 60 fc bd 65 bc d9 3d a2 90 4c 3c 53 20 39 ba
       -0.12323025 0.106316365 0.012485655 -0.00070620066
000040 40 af 88 3d 43 0d bf 3d d2 10 1c 3d 1a 83 da bd
       0.06674051 0.09328701 0.03810198 -0.10669537
000050 c7 90 e4 3d 29 69 2c bd 78 20 8a 3d 69 ee 7b bd
       0.111604266 -0.042092476 0.06744474 -0.061506663
000060 bf 4b 90 bb be d0 81 3b d9 3a 01 be 44 25 7c 3d
       -0.004403561 0.0039616516 -0.12620105 0.061558977
000070 46 5a a4 bd 28 03 8b bd 41 b6 c8 3d 01 e3 11 be
       -0.08025031 -0.067877114 0.09800387 -0.14246751
000080 35 5f 07 3d d9 e7 b7 bd af 1f af bd d5 dd 28 3d
       0.03304978 -0.08979768 -0.08550965 0.04122718
000090 c2 3a 98 3d 88 db 95 bd 8b c5 cd 3d a9 64 75 3d
       0.07433082 -0.07317263 0.10047444 0.05991045
0000a0 a1 8d 43 3d 0c 91 df bd eb 92 c0 3d 43 4a 11 bd
       0.04774249 -0.10916337 0.094030224 -0.035471212
0000b0 27 ef 24 bc bb c5 a4 bd 1d 94 c6 3d c0 fe d3 3d
       -0.010066784 -0.080455266 0.09696219 0.10351324
0000c0 9a fe 3f 3d ac 03 d3 bd cc 62 7e 3d 22 f1 9d 3d
       0.046873666 -0.10303435 0.06210594 0.07712008
0000d0 df 65 e3 3a 58 ef 28 bd 46 37 90 bd e0 4a 5a bd
       0.0017349086 -0.04124388 -0.070417926 -0.053294063
0000e0 e5 2c 9b bd 41 e5 12 be f2 2c 9d bd 04 4c 85 3d
       -0.07576922 -0.14345266 -0.07674588 0.065086395
0000f0 08 52 ce bd 9d ca f0 3d ac d3 f7 bd 0a 1d bf bd
       -0.1007424 0.117573954 -0.1210092 -0.09331711
000100 5b a7 ea 3c 01 8d 3a 3d 00 e2 0b bd 2d ce 37 bc
       0.028644254 0.045544628 -0.034151077 -0.01121859
000110 0b 50 85 3d 64 09 e6 bd e5 11 25 3e 2d 37 a7 bd
       0.065094076 -0.1123226 0.16120107 -0.08164821
000120 d4 b2 28 bd e8 9e aa 3d 37 52 1a bc 31 78 3c 3e
       -0.04118617 0.0833109 -0.009419016 0.18405224
000130 29 b4 d9 bd 3a 31 35 bc 18 e7 de 3d 59 5b e1 3d
       -0.10630066 -0.0110591 0.108839214 0.11003751
000140 1b b4 af 3d 2e 85 3e 3e 1c 60 c9 bd b9 4a 90 3d
       0.08579274 0.18605492 -0.098327845 0.07045502
000150 15 fe 9d 3d 4c 78 7e bc 69 5f cd bd 16 d5 e2 3c
       0.07714478 -0.015531611 -0.10027964 0.027689498
000160 e1 ef 1a bd 6a f7 2c 3e db 70 0e bd 9b 36 ab bc
       -0.037826423 0.16891256 -0.034775596 -0.020900061
000170 ea a4 e2 3d 93 23 b5 3c ac 67 15 3d 64 37 0a bc
       0.11066611 0.02211169 0.036475822 -0.008436058
000180 ac d0 17 be 0c 7c 6e 3d 9b f0 4b be bf db 63 bd
       -0.14825696 0.05822377 -0.19916002 -0.055629488
000190 63 12 41 3e 3a 80 a9 3d 91 81 48 3e 48 13 4b 3c
       0.1885467 0.082764104 0.19580676 0.012394734
0001a0 ed 5c f4 3d cf 53 ed 3d 52 35 3d bd 44 9f 99 bb
       0.11931787 0.11588251 -0.04619343 -0.0046881754
0001b0 eb 4a c9 3d e3 af 24 3d 9f e2 02 bb 68 b3 22 3e
       0.098287426 0.0402068 -0.0019971502 0.1588875
0001c0 91 20 34 bd 12 d3 a8 3c 89 bf 4d 3e 31 d4 cd 3d
       -0.04397637 0.020608459 0.20092596 0.10050238
0001d0 87 3b e1 bd fe 1e 00 3d c1 b5 53 3e 5b e0 2a 3e
       -0.10997682 0.031279556 0.20674802 0.16687147
0001e0 80 a3 0a 3e ba 3d e2 bd 4c 40 f5 3d 81 e4 3d 3e
       0.13538933 -0.1104693 0.11975154 0.18544199
0001f0 7f 2b fe bc 37 de 28 3e 4b 6b 43 be 3a 2f bd 3d
       -0.0310266 0.16491018 -0.19083898 0.092375234
000200 02 dc b4 bb 88 3c 96 bc 07 88 e6 bc 2e 8f e9 bd
       -0.005519391 -0.01833941 -0.028141035 -0.114042625
000210 6b 1c 06 be 28 ed 10 be fc 76 d8 3c 7c f9 2c 3d
       -0.13096778 -0.14152968 0.026423924 0.042230114
000220 dc 0f 68 3c 3c a0 ee 3c b3 70 f8 bd 16 0b 94 bd
       0.014163937 0.02912914 -0.12130871 -0.07228677
000230 d3 bb 70 bd c3 d6 5f bc 76 9d 79 bc 9c bd 0e 3e
       -0.058772873 -0.013662043 -0.0152352955 0.13939518
000240 30 92 6f bd ea 57 96 3d 60 d9 a9 bd 32 c3 ba 3d
       -0.058489025 0.07340987 -0.08293414 0.09119262
000250 27 66 fa bd 1a 68 f6 3b 29 df f0 ba 72 c0 74 3d
       -0.12226515 0.007519734 -0.0018377054 0.059753843
000260 59 0b a4 3b 7c 68 88 3c 74 46 6f 3d a7 33 3d bd
       0.0050062356 0.016651385 0.0584168 -0.046191838
000270 34 44 40 bc 1b 3a 89 3b 46 18 a1 3c 0e 1b 28 bd
       -0.011735011 0.004187835 0.019664895 -0.041041426
000280 c0 18 ca 3a 79 bc 96 bd b8 f5 2d be 4b 97 6e 3d
       0.0015418753 -0.07360167 -0.16988266 0.058249753
000290 e5 6a 17 be f0 23 a2 3b 7c 28 88 be d5 17 31 bd
       -0.14786871 0.0049481317 -0.26593387 -0.04323562
0002a0 85 60 96 3d a0 60 af 3d 77 26 82 3d aa c1 9b 3d
       0.073426284 0.08563352 0.06354993 0.07605298
0002b0 2e 33 5c bd 97 f0 7b 3d 5f e8 94 bd c5 d5 03 3d
       -0.053759746 0.06150874 -0.07270884 0.03218629
0002c0 20 ba f0 bc aa 27 4a 3d 08 f2 36 bb d8 79 d3 bd
       -0.029385626 0.049354233 -0.0027915258 -0.10325974
0002d0 e9 ab f4 3d 6d 1a 1c be 07 f1 8b 3d 41 c8 cc bd
       0.11946852 -0.15244456 0.06833082 -0.09999133
0002e0 11 96 17 3e e3 fc 93 3c 02 87 10 be 53 49 51 3d
       0.1480334 0.018064922 -0.14114001 0.051095318
0002f0 4d 26 b9 bd 39 a9 bc bc 7e 04 38 bd 32 6a f4 bd
       -0.090405084 -0.02302991 -0.04492616 -0.11934318
000300 4a 94 20 3d 14 90 94 3d ee 21 48 bd 24 fb 01 be
       0.03920392 0.07254043 -0.048860483 -0.12693459
000310 9d 8f 81 bc 7f 38 bd ba 3a f3 18 bd f2 74 39 be
       -0.01581555 -0.0014436393 -0.037341334 -0.18111017
000320 19 ba 97 bb 50 7c 35 bc 6f 50 a2 3b ea c3 2d 3d
       -0.004630339 -0.011077002 0.004953436 0.042423166
000330 6a bc 8a 3d 6e 51 0a 3e c6 4e f9 bd b3 49 28 bd
       0.067742184 0.13507625 -0.12173228 -0.04108591
000340 1a 60 53 3d af e8 da bd 4b 6c 01 be d5 ca 33 3d
       0.05160532 -0.10688912 -0.12638967 0.043894608
000350 4c 85 26 3d 7d 3a c9 bb 06 58 d8 3d ca 9f ea bd
       0.040654466 -0.0061410055 0.10563664 -0.114562586
000360 08 8a 2c 3d eb 95 f7 bd 12 39 dc 3d 6c 3c fb bd
       0.042123824 -0.120891415 0.10753073 -0.12267384
000370 46 82 04 be 5b 99 0f 3e b8 c7 2f be 9c c8 06 3c
       -0.1294032 0.14023344 -0.1716603 0.00822654
000380 2a 77 9c 3c 60 d4 7a 3c d0 74 08 be 08 d4 e2 3d
       0.01909979 0.015309423 -0.1332581 0.11075598
000390 86 48 0a 3b ac 17 ba bd 20 3c 45 be 8f 98 76 bb
       0.0021100356 -0.09086546 -0.19261217 -0.0037627553
0003a0 d1 c2 38 bd 38 14 bc 3d 75 9a f5 bd 4f 0a 87 3d
       -0.045107666 0.09183544 -0.11992351 0.06593763
0003b0 c0 4a 9f bc cd 54 cb bd aa 14 54 3d eb 84 90 bd
       -0.019444823 -0.09928284 0.05177752 -0.07056602
0003c0 12 2b 01 3e 2f e7 c6 3d de 83 b2 3d 72 c8 21 bd
       0.12614086 0.097120635 0.08716558 -0.0394978
0003d0 ae 9d be 3c 62 8d 7c bd 76 14 11 bd ba 95 b7 bc
       0.023268547 -0.06165827 -0.035419904 -0.022410262
0003e0 c9 08 e6 3d 03 1c cc 3d b6 d8 f8 bd 93 ca ab bb
       0.112321444 0.0996628 -0.12150709 -0.0052426546
0003f0 f0 d5 5f 3d 45 86 9a 3d 0f 99 d9 bd 23 a7 b9 bd
       0.054647386 0.07545141 -0.10624897 -0.09065082

bias f4 [128]
000000 34 0f 02 3d f4 28 2d be e6 4c 3e bd b2 c4 9d 3d
       0.03175278 -0.16910154 -0.046460055 0.07703532
000010 f3 67 57 bd 64 b4 81 bd 38 a5 0f bd 6c 1d 8e 3c
       -0.052589368 -0.06333235 -0.035069674 0.017348014
000020 40 20 3c bc 18 c3 58 3d 1a 47 dd bd 4f 7b b4 bd
       -0.011482298 0.05292043 -0.10804577 -0.08812582
000030 e0 47 5a bc cc bd ca 3d 67 a2 ba 3c 17 ed 53 3e
       -0.0133228 0.09899482 0.022782518 0.20695911
000040 e9 0e 48 3e e1 69 b2 3c ff 5e d5 bc 95 15 a3 bd
       0.19536938 0.021779003 -0.026046274 -0.07963101
000050 d8 83 d0 3d ef 6f bd 3d b5 3c 15 3e 8b 8a 1b bd
       0.10181397 0.09249865 0.14573939 -0.03797392
000060 63 3b 33 be 1b c7 21 3b 22 b8 e0 3d d6 60 54 bd
       -0.17503123 0.0024685326 0.109726205 -0.051850162
000070 8c 54 01 3e e8 60 8d be 61 3a 81 bd fc a5 b8 bd
       0.12629908 -0.27612996 -0.06309963 -0.09016034
000080 81 b2 3e bd 00 b8 af 3d f7 fc 42 3d 45 0c f3 3d
       -0.046556953 0.08580017 0.047604527 0.118675746
000090 e9 e7 80 bd ca f0 05 3e ee b4 02 bc 61 3d 3b be
       -0.06294233 0.13080135 -0.007977707 -0.18285133
0000a0 72 5a 46 bd 0d 41 ad 3d 91 6c 8e 3d e4 98 13 bd
       -0.0484261 0.08459673 0.06954301 -0.03603448
0000b0 78 67 f5 3d 84 a8 d2 bd f6 3e 1a be 9e 32 d6 bd
       0.11982626 -0.10286048 -0.1506308 -0.10458873
0000c0 b0 62 b9 bc 64 7e ab 3d 11 60 cd ba 44 23 71 3d
       -0.022630066 0.083737165 -0.0015668889 0.058871523
0000d0 f8 cf 35 3e de be 8c 3c 85 8a 5a bd 5d b4 55 be
       0.17755115 0.017180856 -0.05335476 -0.20869584
0000e0 15 6f 0e be 4d 09 46 be f0 5e 7f bd 88 d2 33 3e
       -0.13909562 -0.19339485 -0.0623464 0.1756078
0000f0 ab 0c ee bd 6d c2 cb 3d a3 b7 53 bc 27 d0 da bd
       -0.1162351 0.09949193 -0.0129222 -0.10684233
000100 ac c3 ef 3c f1 ee 26 3d d5 8b 7b bd 05 aa 09 be
       0.029268108 0.040755216 -0.06141265 -0.13443764
000110 05 91 06 be 1c 6a db bd 09 81 a7 3d ef 5d d2 bb
       -0.13141258 -0.10713598 0.081789084 -0.006419889
000120 7d fe c5 bc d4 f8 19 3e c6 3c 1f 3d 22 c9 e6 3d
       -0.024169201 0.15036327 0.038876317 0.11268832
000130 a7 52 fb 3d ea d3 3f be f6 27 2b bd c1 26 03 be
       0.12271624 -0.18733183 -0.041786157 -0.12807752
000140 9d 9d 1d be 96 e4 49 be 24 7d 32 be 43 2b d6 3d
       -0.15392156 -0.19716105 -0.1743055 0.1045747
000150 bd 0b 99 bc d1 9b a9 3c 3b 17 42 bc d6 d3 70 bd
       -0.018682355 0.020704182 -0.011846359 -0.058795772
000160 31 68 07 3e fc 79 e3 bd 61 96 8e bd 16 d9 2c bc
       0.1322334 -0.11107251 -0.06962276 -0.010549804
000170 e0 96 0e 3e cd a6 1a be 43 a3 02 be 08 6f 3a be
       0.13924742 -0.15102692 -0.12757592 -0.18206418
000180 d5 5e 5a 3d c1 77 55 bb 7e 75 39 3e 83 97 f6 3c
       0.053313095 -0.00325726 0.18111226 0.030101543
000190 83 a5 ee 3d a2 78 1e 3d a7 37 d0 bd 9c d1 a7 bd
       0.116526626 0.038689263 -0.10166865 -0.08194277
0001a0 0f 8e 0f 3e 80 3d 2e 3d 45 d7 20 3d 2e 19 3b 3e
       0.14019035 0.04253912 0.039267797 0.18271324
0001b0 3d 91 b4 3d 16 fa 1d 3e 26 b8 9f bc f6 97 16 3c
       0.088167645 0.15427431 -0.019496989 0.009191504
0001c0 8b d9 8d 3c 03 37 4b bb c4 70 91 3c c0 8a 5e bd
       0.017315647 -0.0031008131 0.017753966 -0.05433154
0001d0 75 d4 79 be 31 18 cf bd c4 b8 9f 3d 67 cd 55 3d
       -0.24397452 -0.10112036 0.07798913 0.05219784
0001e0 79 46 64 bd 22 ec 6f bd 53 7b 17 be 89 22 d0 3d
       -0.05573127 -0.058574803 -0.14793138 0.10162837
0001f0 0d 2e 16 3d e4 97 b0 3d 63 7e 23 be 02 a0 24 bd
       0.03666501 0.08622721 -0.15966181 -0.040191658

weight f4 [256, 128]
000000 b0 3c 19 bd ab f2 82 3c 40 c4 9d 3d 83 12 91 bd
       -0.03741139 0.015984854 0.07703447 -0.07083609
000010 d2 26 f0 bd 4f ed 94 3d fc 14 23 bd d7 41 2e 3d
       -0.117261544 0.072718255 -0.039814934 0.04254326
000020 3c 16 b1 bb b6 da f3 bb 1e 2d 67 bd c3 7d c6 3c
       -0.005404262 -0.007441844 -0.05643951 0.02422989
000030 87 7b 23 3d 4d 3b 8e 3c f3 68 98 3c 52 91 61 bd
       0.039912727 0.017362261 0.018604731 -0.05507023
000040 65 dc af bd cb 9d 30 3d 61 44 5d 3b f5 39 17 3e
       -0.08586959 0.043119233 0.003376268 0.14768203
000050 f2 5a 11 3d cf fc ac 3c 5b b4 d2 bd 62 20 fe bc
       0.035487123 0.021116642 -0.10288306 -0.0310213
000060 28 60 f4 3c 5e 3c 43 bd d1 e7 59 bc 03 3b 26 3d
       0.029831007 -0.047664993 -0.013299898 0.04058362
000070 33 82 86 3d 9c 21 d3 bd 06 f1 83 bc f0 34 36 3d
       0.06567802 -0.10309145 -0.01610614 0.04448408
000080 ef 5f 08 3e 26 2f 35 bb d5 4e 7f bd b9 00 bb bd
       0.13317846 -0.002764651 -0.06233104 -0.09130997
000090 ef 59 ef bd 6f 7e 15 bc cc 31 c7 bd b0 cb be 3d
       -0.11687075 -0.009124382 -0.09726295 0.09316194
0000a0 f4 91 44 bd 19 2e 80 3c fb 95 d8 bd 5c e5 c5 3b
       -0.047990754 0.015646981 -0.105754815 0.0060393047
0000b0 ce 41 d4 3c 34 79 d3 bd 63 63 ff 3d 00 e7 94 bd
       0.025910284 -0.10325852 0.124701284 -0.07270622
0000c0 c5 fd 92 bb f1 91 0b be 8b 74 0c bd 08 02 7d 3d
       -0.004485818 -0.13629891 -0.03429083 0.061769515
0000d0 c2 7f fa 3d f1 d4 02 3d 5a 87 79 3d ab ee 0c 3e
       0.12231399 0.031941358 0.060920097 0.1376292
0000e0 06 b7 3f bd bb 26 13 be 24 c5 c3 3d c5 ff 9b 3b
       -0.046805404 -0.14370243 0.09559086 0.0047607147
0000f0 da a0 08 bd c9 e5 7c bc 74 4b ff 3d 5c a8 b4 3b
       -0.033356525 -0.015435644 0.124655634 0.005513234
000100 aa 2c 5a bd 83 09 7b bd 78 3a a2 3d 6e 03 70 39
       -0.05326525 -0.061288368 0.07921308 0.00022889461
000110 1f d2 85 bd 97 4b c1 3b 02 36 d2 bc 36 89 9f bb
       -0.06534218 0.0058989036 -0.025660519 -0.0048686517
000120 fb df 0d 3c df 69 8d bd 71 af 66 3c 05 0c 45 bd
       0.008659358 -0.06904959 0.014079914 -0.048107166
000130 2a 8e c8 3d e1 16 95 bd 43 6f b6 3c 59 75 c1 3d
       0.09792741 -0.072797544 0.02226985 0.094462104
000140 6a 94 17 3c 4c 07 0e be c2 b2 aa bb 2e 70 32 bd
       0.009251693 -0.13869971 -0.005209298 -0.043564014
000150 6e 42 9d bd 8a 21 5f bd 95 3b d7 bd ee 6b 51 3c
       -0.07678686 -0.054475345 -0.10509411 0.01278208
000160 73 e9 1d bd ea c7 c0 bd 57 da 62 bd e1 d9 44 bd
       -0.038552713 -0.094131306 -0.055384006 -0.048059348
000170 e4 96 d5 3d e8 91 f5 3b 10 e7 4e bb 3d 2d cb bc
       0.10429171 0.0074942 -0.003157083 -0.024801845
000180 8a 7b 59 bd 2a de 6d bd 35 06 06 3d a2 d9 ce bc
       -0.05309633 -0.0580732 0.032720763 -0.02525026
000190 57 7f a6 bc 2e 67 7d 3d 2c b9 c2 bc d0 54 a0 3c
       -0.020324392 0.061865978 -0.023769937 0.019571692
0001a0 2b 7f a7 3d 64 fa 80 bd ee 4a 66 bb 54 24 bd 3d
       0.08178552 -0.06297758 -0.0035139876 0.09235445
0001b0 43 09 20 bd aa a7 b8 3d 69 78 30 3d 1a d5 46 3c
       -0.039071333 0.090163544 0.043083582 0.012135768
0001c0 3c 92 6b bd f4 41 7b 3d 18 ed ea bd 17 19 b1 bd
       -0.057512507 0.061342195 -0.11471003 -0.08647364
0001d0 28 7f 0a be 30 d5 b4 3d 7e da 7f bd f2 c4 fc 3c
       -0.13525069 0.08829725 -0.06246423 0.03085563
0001e0 ab 11 8a bd 15 44 b0 3b fa b0 84 3c a1 b2 10 3b
       -0.06741651 0.0053792098 0.01619767 0.0022079127
0001f0 3b 51 d0 bd af 05 26 3d e0 97 99 3d 8a be fe bb
       -0.101717435 0.040532764 0.07499671 -0.007774179
000200 8d 2f 4b 3d a5 9a ef 3d 72 1c 8a bd d2 6d 7f bc
       0.049605895 0.11699418 -0.06743707 -0.015590148
000210 41 b0 b6 3b 42 b4 fc bb 40 d9 51 be 04 03 cf 3d
       0.0055752103 -0.007711918 -0.2049303 0.10107997
000220 5b 14 9f bc 82 3a 6a be be 15 41 3d d0 ed 51 bd
       -0.019418886 -0.22873881 0.047139876 -0.051252186
000230 c9 e0 ff 3c 0c e1 88 bd 42 1c cc 3d b2 7f 80 3c
       0.031235116 -0.06683549 0.09966327 0.01568589
000240 bb 2c d4 3c fd 73 b3 bd e5 62 d8 bd 71 a2 47 be
       0.025900235 -0.087623574 -0.10565738 -0.1949556
000250 eb a2 a8 bd 71 aa b0 bc d6 f8 67 bc 24 59 3c bc
       -0.08234199 -0.021565648 -0.014158448 -0.011495862
000260 5c d5 20 3e 6b f3 2c 3b ef 91 09 bd ba b0 94 bc
       0.1570639 0.0026390206 -0.03358644 -0.018150676
000270 c5 d9 03 3d 82 91 55 be b6 e1 da bd 26 d4 bf 3d
       0.032190103 -0.20856288 -0.10687582 0.09366636
000280 3d 8c 78 be 75 d7 19 bb 3d 56 92 3d 12 b0 1d 3d
       -0.24272247 -0.002347437 0.07145355 0.03849799
000290 b8 ee 28 bc b4 39 47 bc 07 22 c7 3b c1 89 65 bd
       -0.010310821 -0.012159754 0.0060770544 -0.056039575
0002a0 44 f9 39 3d b0 07 92 3c 5a 65 c5 bd 19 ba bc 3d
       0.045403734 0.017825931 -0.09638472 0.09215183
0002b0 59 b5 80 bb 22 99 24 be df 7f 86 3c af ee 19 3d
       -0.0039278683 -0.1607404 0.016418396 0.037581142
0002c0 46 02 5f bb ed 94 31 be 5f 3a 5d 3e f2 17 70 3d
       -0.0034028455 -0.17341967 0.21604298 0.058616586
0002d0 f7 99 df 3d 9d ec b8 3c 1f 92 11 3e 94 e1 ab bd
       0.10918038 0.022573764 0.14215897 -0.08392635
0002e0 57 28 86 3d dd 10 c0 bb 89 ef 18 bd 2c df e7 bd
       0.06550663 -0.0058613853 -0.037337814 -0.113218635
0002f0 5c 33 cd 3d 27 a5 08 bd 8c 62 05 3d 8c c8 af bd
       0.10019562 -0.033360627 0.032564685 -0.08583173
000300 20 67 54 3c d2 55 86 3d cb 86 b9 bc 29 af f5 bd
       0.01296404 0.06559338 -0.022647282 -0.119963
000310 53 56 41 3d 76 6d 5b bd 03 2c e2 bd 9a bb 30 3d
       0.047201466 -0.053571187 -0.11043551 0.04314766
000320 a4 d7 90 3d 35 f6 79 3d 69 18 e2 3c b5 40 dd 3d
       0.0707238 0.061025817 0.02759953 0.108033575
000330 1e 94 0e 3d b7 9a f3 bd 8c 95 63 3a 7e 61 3c 3c
       0.034809224 -0.11894744 0.0008681647 0.011497853
000340 6a e7 74 3d 17 a9 0a be 95 b7 2a bd 93 7c 3d 3d
       0.059791006 -0.13541065 -0.041678984 0.04626138
000350 09 a7 84 bc d6 5f d2 bb cb 57 0d be 44 9f ae 3b
       -0.01619293 -0.006420116 -0.13803022 0.0053290445
000360 f4 5b 4f 3d e9 eb 53 3d 9a aa 11 3d 8b 2f 52 bc
       0.050624803 0.051738653 0.03556309 -0.012828718
000370 f6 92 ae bc 6b d1 f4 3b c2 08 a8 3d 37 b3 83 3d
       -0.02131031 0.0074712536 0.082047954 0.06430667
000380 bd 56 6a bd 6e f2 c4 bd 15 b4 96 bd 29 ee e6 3d
       -0.057211626 -0.09616552 -0.07358567 0.11275894
000390 3f 55 1c 3b db a0 bc 3d 6c 37 0d be 40 9d 9c bd
       0.0023854522 0.09210368 -0.13790673 -0.076471806
0003a0 72 29 d9 3d c8 70 2c bc c3 1b d5 3c 17 3a 63 3d
       0.10603608 -0.010524936 0.026014214 0.05547532
0003b0 b4 8a 57 bd 4a 2d ac bc 94 34 8d bd da 4a d6 bd
       -0.052622512 -0.02101769 -0.06894794 -0.104634956
0003c0 0a cd 9d 3d 27 43 c7 bd 09 19 1e 3d 10 94 8c 3b
       0.07705124 -0.09729605 0.038598094 0.0042901114
0003d0 cb bf 06 bb df 80 d5 3d c2 3d 34 bc 38 f5 e1 3d
       -0.0020561095 0.10424971 -0.011001052 0.110331
0003e0 bf 4d 6f bd 71 bf 8b bd 28 42 3f bd bc 52 89 bd
       -0.058423754 -0.06823624 -0.04669395 -0.067052335
0003f0 d2 6d ac 3c af 1c a7 bc 34 7b 9b bd 3d c4 03 3e
       0.02104846 -0.02039942 -0.075918585 0.12867828

bias f4 [256]
000000 6d e2 01 bd b1 f1 91 bd dd c9 9b bd c6 d0 b0 bd
       -0.031710077 -0.07126177 -0.07606862 -0.086335704
000010 24 e2 da 3d 46 fa 14 3e d1 5f 22 3d af ba 1a bd
       0.10687664 0.14548597 0.03964216 -0.03777569
000020 31 2d d3 bc 4e 9c bf bd de c7 e6 bd 04 c5 ba bd
       -0.025778385 -0.09355985 -0.112685904 -0.09119609
000030 d0 2d ac 3d 2d f5 9d bd 29 a0 78 3d b8 9e 99 3d
       0.084071755 -0.07712779 0.060699616 0.07500976
000040 f2 81 ea bc e9 e1 89 bc 56 cc 35 3d ba e9 3c 3c
       -0.028626416 -0.016831355 0.044384323 0.011530334
000050 a3 33 e8 bd 55 f8 30 3d 5c 0f f5 3d 1b a4 92 bc
       -0.11337974 0.043205578 0.1196582 -0.017900517
000060 ca 02 a9 3c 22 4e af bd 7a 42 22 3e 7b 83 96 bd
       0.020631213 -0.085598245 0.15845671 -0.07349297
000070 0d 3d 3e 3e 09 3f 83 bc a4 93 81 bd b1 b5 17 3d
       0.18577977 -0.016021268 -0.06326988 0.03703851
000080 bb 32 f3 bd 3c d6 dc 3d d1 8b ad 3d 19 77 ff 3c
       -0.118749104 0.107830495 0.084739335 0.03118472
000090 00 28 93 bc bb 8a cf bd 0d 89 1e 3b 3d 55 82 3d
       -0.01796341 -0.101338826 0.0024190575 0.06363914
0000a0 7c 21 ae 3c 24 d9 47 3d b0 0d 28 bd b7 9f a1 3c
       0.021256201 0.048791066 -0.04102868 0.019729478
0000b0 af ba a8 bc 47 a3 f1 3b 02 a0 69 bc 3b c6 82 bd
       -0.02059683 0.0073742005 -0.01425934 -0.06385466
0000c0 89 d9 61 bc b6 26 fe bc 64 98 9c 3c 3e eb 8a 3c
       -0.013784775 -0.031024318 0.019115634 0.016957875
0000d0 c3 a5 2b bd 8f 55 0f 3d f0 9f b8 bd 90 42 97 bd
       -0.04190613 0.034993704 -0.09014881 -0.07385743
0000e0 24 92 ae 3d fe b1 09 3e 15 53 08 3e b7 f3 1f ba
       0.08523968 0.13446805 0.13312943 -0.0006101685
0000f0 23 79 d4 bd e3 cf b2 3b bd b5 ce bd 65 c1 49 3c
       -0.103746675 0.005456911 -0.100932576 0.012314175
000100 ff f9 b4 bd 87 50 83 bd 18 a9 91 3d 7f 2a 56 bd
       -0.088367455 -0.06411844 0.0711233 -0.05228662
000110 d9 51 ae bd cb 8f 99 bd 0e f7 8e bb 46 81 22 3d
       -0.08511705 -0.074981295 -0.0043629473 0.039674066
000120 a3 ef 97 bd 35 7c df 3d ad 04 98 3c 2b e3 21 bc
       -0.07418754 0.109123625 0.018556917 -0.009880821
000130 5d bb e9 bc cd 14 21 3e e2 7f 82 bd 3b 81 84 bd
       -0.028531725 0.15730591 -0.06372048 -0.06469961
000140 ca c3 89 bd a0 64 a5 bd 5b 61 e6 bd be b6 32 bd
       -0.06726797 -0.08075833 -0.11249038 -0.043631308
000150 9e da 85 bd 17 55 f1 3d 1c b8 31 3e bf 65 39 be
       -0.065358385 0.11783808 0.17355388 -0.1810522
000160 3a 03 ea 3d de 10 18 3e 85 dd 71 3c 08 e2 09 3e
       0.11426397 0.14850184 0.014762287 0.1346513
000170 f9 54 33 bd b1 99 c5 bd e1 2e 3f 3d 94 d3 55 3d
       -0.043782208 -0.09648455 0.046675567 0.05220373
000180 b2 a9 06 be 64 d1 38 bd 0e f3 c3 3c 05 d2 89 bd
       -0.13150671 -0.045121565 0.023919608 -0.06729511
000190 cb ec 10 3c 6d eb 44 3c 0e 04 cb 3d f9 81 7e bd
       0.008845518 0.0120190205 0.09912883 -0.06213567
0001a0 57 d3 ae bd 3b 74 04 3e 26 10 ff 3b 05 37 22 be
       -0.085364036 0.12934963 0.0077839075 -0.15841301
0001b0 3a 67 54 bc 29 e3 78 3d 5b 8f c7 3c 0e aa 19 bc
       -0.012964064 0.06076351 0.02436035 -0.009378923
0001c0 fe ec 9b bd 7c 77 9b bd 64 25 4c bc 1e 7a af 3c
       -0.07613562 -0.07591149 -0.0124600865 0.021420535
0001d0 b7 d8 97 3d 31 63 e9 bc 22 af 97 bd 3a d6 e9 3d
       0.07414382 -0.028489681 -0.07406451 0.114178136
0001e0 a5 64 06 3e fb a7 82 bd 0d 6c aa 3d 53 68 2f 3e
       0.1312433 -0.06379696 0.0832139 0.1712964
0001f0 14 58 47 3d 9f 71 10 3d 25 ba f8 3b 80 cb 06 3d
       0.048667982 0.035264608 0.0075905495 0.032908916
000200 fc 35 59 3d 3a 49 c0 bc 29 a6 b4 3c 3c 9c ab ba
       0.05303 -0.023472417 0.022051888 -0.0013092826
000210 b2 8e d4 3d e2 d0 c5 3d 95 93 ee bd 62 e6 7b 3d
       0.103787795 0.09658982 -0.11649243 0.061499007
000220 c3 2a 6f bc 28 94 22 be 9f 87 3a bd e8 d6 f2 bd
       -0.0145975975 -0.1587683 -0.045539495 -0.11857396
000230 e9 42 96 bd a2 ab a9 3d 90 75 14 3c c4 44 8c 3c
       -0.07336981 0.082846895 0.009061232 0.017122634
000240 e4 4c 70 bd ae 26 cd 3d 99 de ef 3b ed 91 6f 3d
       -0.05866708 0.10017143 0.007320237 0.058488775
000250 51 6b 1f 3d 73 68 bb bd 49 69 30 3d ec c5 db bc
       0.038920704 -0.091507815 0.043069158 -0.026827775
000260 4e 4f 02 bd ab 0f 49 3d b9 36 38 bd c2 9f 8a 3c
       -0.031813912 0.049087208 -0.044974063 0.016921882
000270 8d 47 5b bd 31 61 88 bd dd fc 71 bd 64 54 8c bd
       -0.053535033 -0.06659163 -0.05907904 -0.06852034
000280 de d7 16 be 37 89 1d 3b ac 45 b9 bc d8 c8 fb bc
       -0.14730784 0.0024038085 -0.02261623 -0.030735418
000290 16 bc e4 bd 13 23 72 bd 3d 1b ae 3d 72 4e e6 3d
       -0.11168687 -0.05911548 0.08501289 0.11245431
0002a0 03 ee 3c 3e 68 55 a2 3d 80 32 90 bd c8 53 7f bd
       0.1845017 0.07926446 -0.07040882 -0.06233576
0002b0 16 54 a2 3c ca 0a 27 bd 59 0d d6 3d 11 4c 19 be
       0.019815486 -0.040781774 0.104517646 -0.14970423
0002c0 aa b5 05 be c2 57 21 3d ae ed 94 bd 68 db e7 bd
       -0.1305758 0.039390333 -0.07271896 -0.11321145
0002d0 d8 17 ad 3c fa c9 d6 3a 7b 5e dd bd fa 0d 64 3d
       0.021129534 0.0016387098 -0.10809036 0.05567739
0002e0 e2 af a3 3d f8 17 e4 3c 01 00 99 bc 03 46 53 3e
       0.07992531 0.02784346 -0.01867676 0.20632176
0002f0 10 27 d8 bd 8f 02 f4 3d d4 cc d5 3d 9b 10 9a 3d
       -0.105543256 0.119145505 0.104394585 0.075226985
000300 a7 76 c4 3c b6 1c 8a 3c ce 83 ae bd c0 41 a2 bc
       0.02398236 0.016859394 -0.085212335 -0.019806743
000310 f2 19 a9 3d 88 9a 85 bd e5 39 99 bd b5 f9 a7 bd
       0.08256902 -0.06523615 -0.07481746 -0.08201925
000320 1c 45 b4 bd 7b 1f c9 3c d8 d6 c0 3d 03 21 92 3c
       -0.08802244 0.024551144 0.09415978 0.017838007
000330 14 3b c4 bd fa 0c f3 3d 80 15 95 bd cc f9 ab bd
       -0.09581581 0.118677095 -0.072794914 -0.08397254
000340 47 8e 2e 3d 12 f8 17 be 6d c1 9c 3d e0 45 34 bd
       0.042616155 -0.14840725 0.076540805 -0.04401195
000350 24 12 08 3e 0d ba bd bd 04 87 c3 3c 30 8c 9e 3d
       0.1328817 -0.09264002 0.023868091 0.077415824
000360 f3 be 25 bd e8 5e 24 be 3e 7f f5 bc 7e 71 6d bd
       -0.040465306 -0.16051829 -0.0299679 -0.057969563
000370 b5 c2 12 bd 7c 50 6c bd 9a eb ef 3c ff b5 3f bd
       -0.03583022 -0.057693943 0.029287148 -0.046804424
000380 4a 34 99 3d 06 dd 9c 3d 44 b8 5b 3d 40 86 11 bd
       0.074806765 0.076593444 0.053642526 -0.03552842
000390 23 1e 9c b9 17 72 16 be c3 bc 12 3d eb 88 83 3c
       -0.00029777092 -0.1469196 0.03582455 0.016056499
0003a0 8d 44 43 3d d8 76 c0 3c 22 16 2f bc c5 04 15 3d
       0.047672797 0.02349417 -0.010686429 0.0363815
0003b0 d4 be 15 3d b6 71 07 be 22 ad 3c be 91 5f 49 bd
       0.03655894 -0.13226971 -0.1842542 -0.049163405
0003c0 a9 21 fa bc 0a bf 9c 3d 69 4c 5f bd 9d 95 8d bd
       -0.030533629 0.07653625 -0.05451623 -0.06913302
0003d0 78 fa 9b bd e9 ea 0d bd b6 e8 f1 bd bc ce 20 be
       -0.076161325 -0.034647856 -0.11811964 -0.15703863
0003e0 98 57 0f 3d 18 83 8a bc 12 78 f3 3b 5d e1 02 3d
       0.034995645 -0.016908213 0.007430085 0.031953204
0003f0 cc 78 62 3d a7 9a c8 bc 52 af 33 bd 09 57 18 3d
       0.055290982 -0.024487806 -0.04386837 0.03719238

weight f4 [256, 256]
000000 fb 97 37 3d 90 6e 1e bc 24 33 9e 3d e0 84 cb bd
       0.044822674 -0.009669915 0.07724598 -0.09937453
000010 8b 72 62 bc 32 30 fd bd 75 a3 1b bc ac fb 2c bc
       -0.0138212545 -0.12362708 -0.00949942 -0.01055805
000020 eb ac 54 3c f8 63 cf bc d1 ad cc bc 13 02 74 be
       0.01298068 -0.025316224 -0.024985226 -0.23828916
000030 fe 83 bd 3c b9 b9 a2 3d 97 b3 15 bd 3e 50 12 bc
       0.023134228 0.0794558 -0.036548223 -0.008930264
000040 43 28 96 3d 10 88 f7 3d 07 09 cf bc 5b 2a 28 3b
       0.07331898 0.12086499 -0.02527286 0.0025660011
000050 ce bc e7 ba 52 3f 96 be 6c 28 f7 bc 57 6d 49 bd
       -0.001768017 -0.29345185 -0.030170642 -0.04917654
000060 37 86 63 bd 5b 5f f9 bc d2 bc b1 bb 8a 36 52 bb
       -0.05554792 -0.030440977 -0.0054241205 -0.0032075965
000070 e2 dc c1 3d be f4 96 bc ef 2c 59 3d 4b dc 22 bd
       0.09465958 -0.018427249 0.053021368 -0.03976087
000080 70 13 1a 3d bd 44 dd 3c fe 6f 0c 3d 88 f7 4c 3d
       0.037616193 0.027010316 0.03428649 0.05004075
000090 af 64 fa 3d e8 d6 f4 bd 68 bc e6 3d c5 f6 88 3d
       0.12226235 -0.119550526 0.112664044 0.066876926
0000a0 21 b0 a2 3d 20 56 b8 bc 0f ab ca 3d 76 35 a7 3c
       0.0794375 -0.022502005 0.09895908 0.020411234
0000b0 a2 af 3f 3d 9d bf 57 bd 8b 71 f7 bc 46 2f 64 be
       0.046798356 -0.05267297 -0.030205509 -0.22283658
0000c0 5e c0 c5 bd 5b 15 bd bd e8 fe 53 3d 9a a4 4f 3d
       -0.09655832 -0.09232589 0.05175677 0.050694086
0000d0 8e d8 1a be fa 8e c2 bd ca 9d 63 3d d3 5f 23 bd
       -0.15121672 -0.09499927 0.0555704 -0.039886307
0000e0 36 02 30 bd fe 41 1c 3d c3 30 9a bd 80 d6 f5 3c
       -0.04297086 0.038148873 -0.07528832 0.030009508
0000f0 53 3c 3a bd f8 3a 64 bd f6 e9 67 bc 51 ae 1c 3d
       -0.045467686 -0.0557203 -0.014154902 0.03825218
000100 68 dd 00 be d4 10 9e bb e4 05 b1 3d 2c ec 05 3d
       -0.1258446 -0.0048237834 0.08643702 0.032695934
000110 e1 de 61 3b d2 70 4a 3d c4 de 4f 3d 4a dd 2f 3d
       0.0034465122 0.049424 0.050749555 0.042935647
000120 91 00 f9 3b 31 f7 3d 3d 84 ce 9f 3d c4 0e 09 3d
       0.0075989445 0.04637832 0.078030616 0.033461347
000130 a7 4f 30 3e 1d 43 32 3d 4f d8 a0 3d d3 df 71 bb
       0.17217885 0.043521035 0.078537576 -0.0036907091
000140 84 7e 71 bd 94 b8 25 be a6 0e df bb f7 db 14 3c
       -0.058958545 -0.16183692 -0.006807166 0.009085647
000150 92 ff 3a 3c dc 04 50 bd b9 2d cb 3d 49 65 87 3d
       0.011413472 -0.050785884 0.0992083 0.066111155
000160 66 f0 de 3d 81 bd 4b bd 8e df 95 bc 26 9d 83 3c
       0.10885696 -0.049741272 -0.018295076 0.016066145
000170 1f 0d df bd 87 c6 5f bd fc 11 13 3d 5c 93 62 bc
       -0.108911745 -0.05463269 0.035905823 -0.0138290785
000180 dc 65 04 be 8f 7d 02 3e 20 7c 01 be 5f c0 cc bc
       -0.12929481 0.1274321 -0.12645006 -0.024994073
000190 f9 2a d0 3d b2 6e 6f bd 96 1a 55 3d e0 ff ab 3d
       0.101644464 -0.058455177 0.052027307 0.08398414
0001a0 f0 50 08 3d c8 6b 6d 3c 03 3f 17 bc 87 9c f7 3d
       0.033280313 0.014491029 -0.009231332 0.12090402
0001b0 83 d9 8a bd 92 e8 77 3d 1b 3e 13 bd 5a 0c c6 bc
       -0.06779768 0.06052453 -0.0359479 -0.024175812
0001c0 75 7c 35 3d 8a 51 18 3d 81 76 eb 3c d4 66 a3 3c
       0.044308145 0.037187137 0.02874303 0.019946493
0001d0 60 f8 d3 3b 05 27 28 bd e5 44 02 3d fc 4e 85 bd
       0.0064688176 -0.041052837 0.031803984 -0.06509206
0001e0 16 43 5f 3c 5a 29 40 3c e2 4e bc bd 85 41 8e bd
       0.013626834 0.011728609 -0.09194733 -0.069460906
0001f0 59 2d e3 bb e3 6f dc bc d3 07 0b be e0 ce 16 3d
       -0.006932896 -0.02690882 -0.13577203 0.036818385
000200 a1 00 ba 3b 0e 1f 16 be 1d 74 1e bb 3b 30 61 3d
       0.0056763445 -0.14660284 -0.0024178096 0.054977637
000210 88 14 b2 3c de fd 61 be 40 9a 8c 3c cb e2 a1 3d
       0.021738306 -0.22069499 0.017163396 0.079045855
000220 4b d1 26 bd dd 03 44 3c 29 d5 71 3d e5 2d ad be
       -0.04072694 0.011963812 0.059041176 -0.33824077
000230 fc c5 60 3d bc e4 89 bd a3 4e 54 be d5 6c 06 3d
       0.054876313 -0.06733081 -0.20733123 0.032818634
000240 1d 1a 2e bd de 4e fc bd 2a db 38 3d 66 b4 de bc
       -0.042505372 -0.1231973 0.045130886 -0.02718563
000250 3e bb 48 3c cb 81 75 3d 66 a0 36 3d fb ac 0b be
       0.012251673 0.059938233 0.04458656 -0.13640206
000260 78 33 a3 bc 5b 74 1e 3b 0c 59 3b bc e2 d8 cd bc
       -0.019922003 0.002417824 -0.011434805 -0.025127832
000270 ac 6a 07 bd 29 d2 ec 3c f0 38 fb bd 03 38 ba 3b
       -0.033060715 0.028908806 -0.12266719 0.0056829466
000280 a6 31 e6 3c 2d 08 e9 3c 48 94 f7 bc 61 e6 39 3d
       0.028099846 0.028446281 -0.030222073 0.045385722
000290 c7 2f 46 bd 1e 08 a3 3c 01 b4 19 3a 1f 01 d7 bd
       -0.048385408 0.019901332 0.00058633095 -0.10498261
0002a0 d2 cd d3 bc cf f4 12 bd 91 04 e2 3b e6 8e 83 bc
       -0.025854979 -0.035878 0.006897517 -0.01605935
0002b0 c7 54 f6 bb cd d9 a3 3c df 8e 2c 3d 68 a1 f9 3b
       -0.0075174305 0.020001316 0.04212844 0.007618118
0002c0 63 b6 9b bd 49 1e 2a bd 61 c7 f1 bc 00 46 a7 bd
       -0.07603147 -0.04153279 -0.029514017 -0.08167648
0002d0 b0 69 d6 bc cc e6 db bc d9 92 1c bd 41 63 55 3c
       -0.026173443 -0.026843451 -0.038225982 0.013024152
0002e0 98 24 2b bd 0a 49 ef 3b 9a 55 4c bd 27 e4 7b 3d
       -0.041782945 0.007302408 -0.049886324 0.06149688
0002f0 3c f1 ad bd 2f 8e 3e 3d 4c d8 6b bd 68 a5 fa bd
       -0.084932774 0.046522316 -0.057579324 -0.1223858
000300 87 3e f1 bd e8 4d ee bc ee ac 09 3d f8 4c a7 3d
       -0.11779504 -0.029089883 0.033612184 0.081689775
000310 20 7c 8c 3c 59 15 2a 3d 11 bf c4 bc 19 9a 08 3e
       0.017149031 0.041524265 -0.024016889 0.13340034
000320 dd d0 8e be 73 09 d6 bc 28 72 cb bc 6f 81 ff ba
       -0.27893725 -0.026127553 -0.024834707 -0.001949353
000330 20 99 04 be 4d dd 7d bd d6 d8 0c 3d a9 22 a1 bc
       -0.12949038 -0.061978627 0.03438648 -0.019669848
000340 71 72 92 bc 20 03 20 3c 0c aa 9e bd c6 cc 6a 3d
       -0.017876836 0.00976637 -0.077472776 0.057324193
000350 fd ce 8a bd 64 1a 09 3e e8 cc a0 bd af 1b c1 3c
       -0.06777761 0.13388973 -0.07851583 0.02357277
000360 e2 d6 c5 bc 85 c3 44 bc 10 ce d4 3c a8 d0 59 3d
       -0.024150316 -0.012009506 0.025977165 0.053177506
000370 fa d7 c6 3d 11 92 1a 3d 8d 69 06 bd d6 08 50 3d
       0.09709163 0.037736956 -0.032815505 0.050789677
000380 b9 6b 9b 3d d6 2a dd bd a9 6d 0a 3d 3c ad e8 3d
       0.07588906 -0.10799186 0.033795986 0.11361167
000390 36 8f 8c bd e0 db 2f 3d 26 b6 7e 3c bb 0c bf 3d
       -0.06863253 0.0429343 0.015546357 0.093286
0003a0 e6 1a 7c 3d 01 3d 87 3b 35 2e 42 3c b0 61 81 bc
       0.06154909 0.0041271453 0.011851837 -0.015793651
0003b0 77 2a d5 3c 89 4a 77 bd d5 e4 10 bd 18 53 52 bc
       0.026021225 -0.060373817 -0.03537448 -0.012837194
0003c0 bf 89 ac 3d 6d 4f 49 3d b3 22 f6 bc 58 e8 a5 3d
       0.084247105 0.049148012 -0.030045843 0.08100957
0003d0 98 94 4a 3c b5 9d ad bd ba 65 6a bc 6f 3f 96 3d
       0.012364529 -0.08477346 -0.01430648 0.07336318
0003e0 f6 41 52 3d 6a 9c 40 bd 10 21 2b be b2 6b 6f bb
       0.051332437 -0.047024168 -0.16711831 -0.0036532697
0003f0 fa 08 d5 bd 1a af 69 bb 38 7d 31 bc 8c 98 20 3d
       -0.10402103 -0.0035657347 -0.010833077 0.03920798
